XAI_project/weight_checkpoint_2023-1-20_1-25-23_AZIpynZY4IEDnPTcDzsi.pt (torch, 144935 bytes, 14 tensors)

net.0.linear.weight f4 [32, 11]
000000 81 d1 38 bf 6b 49 66 be b9 40 0d be 0c ab 80 3e
       -0.7219468 -0.22488944 -0.13794221 0.25130498
000010 62 0f 72 be 0f 10 ab 3d b9 f3 41 be 28 af e3 be
       -0.2363868 0.08352672 -0.18940629 -0.4446957
000020 bf a5 01 3f 44 cf 40 bf 23 a1 91 bd 0d 2f 88 be
       0.50643533 -0.7531626 -0.071108125 -0.26598397
000030 ea a0 aa 3e 4b 5d 3e bf b2 5d 8d 3e b1 d8 35 3e
       0.33325893 -0.74361104 0.27610546 0.17758442
000040 d4 c2 9a 3d 9c 6c 81 bd f5 e1 f1 3e 9a a4 8c be
       0.07556692 -0.06319544 0.47242704 -0.2746933
000050 04 01 14 bf 96 fe 7b be 11 48 94 be 04 e3 45 be
       -0.5781405 -0.24608836 -0.28961232 -0.19324881
000060 06 bd de 3e 06 af fa bd b1 7c 1a 3e 91 ed ed 3e
       0.43503588 -0.12240414 0.15086628 0.4647031
000070 98 88 0e 3e 33 bb 3d bd 4a fe 0c be 19 9c 1a bf
       0.13919294 -0.046321105 -0.13768879 -0.60394436
000080 4e 4a 1a 3e 44 a0 3e 3f 25 4b 0c 3e e6 62 2a bd
       0.15067407 0.74463296 0.1370054 -0.041598223
000090 b4 74 27 bf ba 37 f5 bc f2 70 b7 3e 97 74 24 bb
       -0.6541245 -0.029933799 0.35828358 -0.0025093907
0000a0 16 4a 17 3e 71 6b 5f be 93 91 18 be ce 20 5a bf
       0.14774355 -0.2181833 -0.14899282 -0.85206306
0000b0 45 dc 6e 3e ea d7 d0 bd a7 40 35 3f a0 04 e7 3d
       0.23326214 -0.10197432 0.70801777 0.11280179
0000c0 d1 7e a0 3d 83 c8 de 3d d3 24 9e bd 35 c3 1a 3f
       0.07836688 0.10878088 -0.077218674 0.6045411
0000d0 bf a9 1f 3f 43 59 10 bf ae 5f fc be c5 3f 09 be
       0.62368387 -0.563862 -0.49291748 -0.13403232
0000e0 14 3f de be 7f ad c8 be 09 cb 2e bf 30 14 3e 3e
       -0.434075 -0.39194867 -0.6827856 0.18562388
0000f0 29 03 76 3c 46 05 71 be 5a 5e d7 be e0 66 2c bf
       0.015015402 -0.23537168 -0.42064172 -0.67344475
000100 a0 0c 54 3e db 6a 2f 3c 37 d4 38 3e 30 58 56 3e
       0.20707941 0.010706629 0.18049704 0.20932078
000110 54 66 e8 3d 30 b9 8c 3f dc 5d 1a bf 1c 12 95 3e
       0.113476425 1.0994015 -0.6029947 0.2911538
000120 04 d3 a0 3c 6e fa 7e 3c 60 45 08 3e 05 d6 8a 39
       0.01963187 0.015562637 0.13307714 0.00026480868
000130 ae 78 10 bf 11 81 8f 3e 81 f3 c7 be fb 86 35 3f
       -0.5643414 0.28028157 -0.39052966 0.7090909
000140 e0 0f 1f 3e 26 92 82 bd a4 79 58 3e 01 a5 37 bf
       0.155334 -0.06375532 0.21140152 -0.7173615
000150 ec 80 e4 3e ef a2 cb 3e c2 73 99 be 51 b9 c2 3e
       0.4462961 0.39772746 -0.2997113 0.3803201
000160 e6 ca 60 3f 53 a2 c0 3c ac a1 d8 3e 73 d4 44 3e
       0.878096 0.023514902 0.42310846 0.19221668
000170 da 4e c3 3e b2 c0 45 3e a5 b8 96 bd fa d0 d2 be
       0.38146096 0.19311789 -0.07359437 -0.4117506
000180 af 9d 26 bd 62 df f8 3e 10 c9 4b 3e 32 78 07 3f
       -0.040677723 0.48607928 0.19900918 0.5291778
000190 6e 0c 58 be 91 13 e8 3e d5 6d c7 be 49 fd bb 3e
       -0.21098492 0.45327428 -0.38950983 0.3671668
0001a0 df 49 1a 3f 33 4c ee 3d a8 88 ae bc e5 4a 7d be
       0.6026897 0.116356276 -0.021305397 -0.24735601
0001b0 1a de e5 3d a8 24 b2 be 48 72 51 be 4f 07 33 bf
       0.11224003 -0.34793591 -0.20453751 -0.6993303
0001c0 b6 54 84 3f 71 de 38 be 0e 42 a3 3d 00 c4 c4 be
       1.0338352 -0.18053605 0.07971583 -0.38430786
0001d0 07 06 39 3e b7 8f 9f be 96 27 ba be eb 4a 0b be
       0.18068705 -0.31164333 -0.36358327 -0.13602798
0001e0 c5 a5 23 be 8e 24 71 3f 97 8c 71 3e dc e0 d5 3e
       -0.15981205 0.94196403 0.23588787 0.41773117
0001f0 07 36 3a be 2f fa db be 29 c6 06 3e a8 c9 cc bd
       -0.18184672 -0.42964312 0.1316153 -0.099994004
000200 1e 92 77 be cc b2 b8 bc fc d2 1e be d4 79 2c 3e
       -0.24176833 -0.022546194 -0.15510172 0.16843349
000210 08 0b 8e 3e 93 62 05 bf 2b 13 50 3e 2e bc 05 bf
       0.2774279 -0.5210354 0.20319812 -0.52240264
000220 1e cb ad be a4 37 11 3e 0b 64 83 3f a8 ec de bd
       -0.3394403 0.14181381 1.0264906 -0.10884982
000230 1c 07 4c 3f db f8 80 be 46 93 eb 3e ff 36 36 bf
       0.7969835 -0.25189862 0.46010798 -0.7117767
000240 bd b1 de be 86 85 c1 bd 31 26 02 3f 26 fc 12 bf
       -0.4349498 -0.09449296 0.50839525 -0.57416
000250 8f 75 9f be 3a 21 06 bf 74 37 ab 3e dd 4d ac 3e
       -0.31144378 -0.5239445 0.33440745 0.33653155
000260 8e 5e 03 be aa 39 cb 3c 19 dc fd 3e 32 29 19 3c
       -0.12829039 0.02480777 0.49581984 0.009348201
000270 0c 30 be be b6 e5 12 3f 71 7e f6 3e 9b 98 a9 3e
       -0.37146032 0.5738176 0.48143342 0.3312424
000280 e3 a2 5b 3f 83 f9 85 be 96 23 4d 3f e0 67 19 3e
       0.8579542 -0.26166925 0.80132425 0.14981031
000290 fa fb 4e 3e 0a 2a c4 be cf 6f f9 3e 19 97 15 bf
       0.20213309 -0.38313323 0.48718116 -0.5843368
0002a0 87 5e e5 3d 7a c6 13 3f ee 5a 94 3e 59 49 e3 3e
       0.1119967 0.57724726 0.28975624 0.44391897
0002b0 03 72 9a be a7 a2 36 bd 9f 86 b3 3f 77 66 08 bf
       -0.3016511 -0.04458871 1.4025458 -0.5328135
0002c0 bb 98 4d be 7e b3 e8 3d 15 22 03 3f c6 e1 0b bf
       -0.20077793 0.113623604 0.5122388 -0.5464138
0002d0 c5 fc 20 3d cf 25 be bd d2 cd 3b 3f 0d 61 9d be
       0.03930356 -0.09284555 0.7336093 -0.30738106
0002e0 cc ec 0f 3f c4 d0 c0 3d 51 41 b2 3e 27 d0 83 bd
       0.562207 0.09414819 0.34815457 -0.06436186
0002f0 7f cd 06 3e 06 c4 9f bd 21 af d1 be 0f 49 84 3e
       0.13164328 -0.078010604 -0.40953925 0.2583699
000300 70 fa 80 be 4f 60 25 bf ee 25 22 3f 30 c1 2e bb
       -0.2519107 -0.6460008 0.63339126 -0.0026665442
000310 c2 0f 0c be 83 58 80 3e b5 14 b7 3e 0e 11 97 be
       -0.13677886 0.2506753 0.35757986 -0.295052
000320 88 a5 56 bf 46 16 3a 3f ed 11 8c 3e 1c 5b ba 3d
       -0.8384633 0.72690237 0.27357426 0.09099409
000330 5a 4a a5 3e bc 82 c3 3e 1f e5 6f 3e 76 7c b8 37
       0.32283288 0.3818568 0.23427247 2.1992466e-05
000340 28 10 05 3e 54 85 c4 be 37 96 08 3c 62 9c cc bd
       0.12994444 -0.3838297 0.008336595 -0.09990765
000350 55 ae 7d bd bb 71 be 3d 10 e2 36 3f b7 2c 3b bc
       -0.061933834 0.09299036 0.71438694 -0.011424235
000360 e8 0b 96 bd 17 25 90 be 9c 30 8e 3d 38 59 a1 be
       -0.0732649 -0.28153297 0.06942865 -0.3151338
000370 60 bc 6a 3d 7b 79 67 be 72 20 43 be 00 39 be 3e
       0.057308555 -0.22604935 -0.19055346 0.37152863
000380 36 f4 cf 3d a2 81 7d 3d db cd b6 3e ec 10 a4 bd
       0.101540014 0.061891206 0.3570393 -0.0801104
000390 64 cd 00 bf c8 bf b1 3e f1 7e 8b 3d 20 6e 8a bd
       -0.503134 0.3471663 0.068113215 -0.06759286
0003a0 8b fe 67 be 2b 32 23 3e 42 7d 24 bf be 75 08 3f
       -0.22655694 0.15937106 -0.6425363 0.5330466
0003b0 a8 70 a3 3e a6 e9 e4 3d 85 63 c7 3e 5e 58 5c 3e
       0.31921887 0.111773774 0.38943115 0.21518084
0003c0 f7 bf 04 bf a7 23 99 be 05 c5 a2 3c 89 d2 af be
       -0.51855415 -0.29910013 0.019869337 -0.34340313
0003d0 61 8b 62 bf e0 67 1d bf 88 72 bf be 43 a4 c1 be
       -0.88493925 -0.61486626 -0.37392068 -0.37820634
0003e0 5b a4 0b be 4d b6 f4 be f1 ed f1 be 38 6c 36 be
       -0.13636915 -0.47795334 -0.47251847 -0.1781472
0003f0 3f d0 dd be 7c 75 0b 3f ac c3 fc 3e ba 0c 3a bf
       -0.43322942 0.5447614 0.49368036 -0.7267567

net.0.linear.bias f4 [32]
000000 9b d8 4c 3e 00 16 8c be b2 ef 83 be e3 6e b7 bc
       0.20004503 -0.27360535 -0.2576881 -0.022391742
000010 1f 51 e3 bc 02 d1 79 3d a9 25 27 3d 2f f0 0a 3e
       -0.027748642 0.06099034 0.0408074 0.13568185
000020 0c b2 58 3e 9f c8 1a 3d f0 7a 76 bc 59 da 41 be
       0.2116167 0.037788983 -0.015043959 -0.1893095
000030 9f a7 91 3e 48 7c 14 3e 2f 85 3a be aa 22 69 be
       0.28448197 0.14500535 -0.18214868 -0.2276713
000040 27 27 95 be d8 1d 8c be 99 78 85 be 88 b8 42 3e
       -0.29131433 -0.2736652 -0.2606857 0.19015706
000050 30 06 17 3e cc ec 47 3e b4 ba fd 3d 9b 6e 3d be
       0.14748454 0.19523925 0.123891264 -0.18499224
000060 a5 f2 c9 bd a3 e5 f6 3d e8 07 1d ba 35 66 8e be
       -0.09860734 0.120555185 -0.0005990253 -0.27812353
000070 72 9c bd 3d 4f 49 66 bc e8 d5 98 3e 18 94 d8 bd
       0.09258355 -0.014055564 0.29850698 -0.10575122

net.0.batch_norm.weight f4 [32]
000000 00 00 80 3f 00 00 80 3f 00 00 80 3f 00 00 80 3f
       1.0 1.0 1.0 1.0
000010 00 00 80 3f 00 00 80 3f 00 00 80 3f 00 00 80 3f
       1.0 1.0 1.0 1.0
000020 00 00 80 3f 00 00 80 3f 00 00 80 3f 00 00 80 3f
       1.0 1.0 1.0 1.0
000030 00 00 80 3f 00 00 80 3f 00 00 80 3f 00 00 80 3f
       1.0 1.0 1.0 1.0
000040 00 00 80 3f 00 00 80 3f 00 00 80 3f 00 00 80 3f
       1.0 1.0 1.0 1.0
000050 00 00 80 3f 00 00 80 3f 00 00 80 3f 00 00 80 3f
       1.0 1.0 1.0 1.0
000060 00 00 80 3f 00 00 80 3f 00 00 80 3f 00 00 80 3f
       1.0 1.0 1.0 1.0
000070 00 00 80 3f 00 00 80 3f 00 00 80 3f 00 00 80 3f
       1.0 1.0 1.0 1.0

net.0.batch_norm.bias f4 [32]
000000 00 00 00 00 00 00 00 00 00 00 00 00 00 00 00 00
       0.0 0.0 0.0 0.0
000010 00 00 00 00 00 00 00 00 00 00 00 00 00 00 00 00
       0.0 0.0 0.0 0.0
000020 00 00 00 00 00 00 00 00 00 00 00 00 00 00 00 00
       0.0 0.0 0.0 0.0
000030 00 00 00 00 00 00 00 00 00 00 00 00 00 00 00 00
       0.0 0.0 0.0 0.0
000040 00 00 00 00 00 00 00 00 00 00 00 00 00 00 00 00
       0.0 0.0 0.0 0.0
000050 00 00 00 00 00 00 00 00 00 00 00 00 00 00 00 00
       0.0 0.0 0.0 0.0
000060 00 00 00 00 00 00 00 00 00 00 00 00 00 00 00 00
       0.0 0.0 0.0 0.0
000070 00 00 00 00 00 00 00 00 00 00 00 00 00 00 00 00
       0.0 0.0 0.0 0.0

net.0.batch_norm.running_mean f4 [32]
000000 00 00 00 00 00 00 00 00 00 00 00 00 00 00 00 00
       0.0 0.0 0.0 0.0
000010 00 00 00 00 00 00 00 00 00 00 00 00 00 00 00 00
       0.0 0.0 0.0 0.0
000020 00 00 00 00 00 00 00 00 00 00 00 00 00 00 00 00
       0.0 0.0 0.0 0.0
000030 00 00 00 00 00 00 00 00 00 00 00 00 00 00 00 00
       0.0 0.0 0.0 0.0
000040 00 00 00 00 00 00 00 00 00 00 00 00 00 00 00 00
       0.0 0.0 0.0 0.0
000050 00 00 00 00 00 00 00 00 00 00 00 00 00 00 00 00
       0.0 0.0 0.0 0.0
000060 00 00 00 00 00 00 00 00 00 00 00 00 00 00 00 00
       0.0 0.0 0.0 0.0
000070 00 00 00 00 00 00 00 00 00 00 00 00 00 00 00 00
       0.0 0.0 0.0 0.0

net.0.batch_norm.running_var f4 [32]
000000 00 00 80 3f 00 00 80 3f 00 00 80 3f 00 00 80 3f
       1.0 1.0 1.0 1.0
000010 00 00 80 3f 00 00 80 3f 00 00 80 3f 00 00 80 3f
       1.0 1.0 1.0 1.0
000020 00 00 80 3f 00 00 80 3f 00 00 80 3f 00 00 80 3f
       1.0 1.0 1.0 1.0
000030 00 00 80 3f 00 00 80 3f 00 00 80 3f 00 00 80 3f
       1.0 1.0 1.0 1.0
000040 00 00 80 3f 00 00 80 3f 00 00 80 3f 00 00 80 3f
       1.0 1.0 1.0 1.0
000050 00 00 80 3f 00 00 80 3f 00 00 80 3f 00 00 80 3f
       1.0 1.0 1.0 1.0
000060 00 00 80 3f 00 00 80 3f 00 00 80 3f 00 00 80 3f
       1.0 1.0 1.0 1.0
000070 00 00 80 3f 00 00 80 3f 00 00 80 3f 00 00 80 3f
       1.0 1.0 1.0 1.0

net.1.linear.weight f4 [32, 32]
000000 75 69 bf 3e f1 71 c1 3e 1a 2e 52 be 57 42 f3 bc
       0.37385145 0.37782243 -0.20525399 -0.02969472
000010 0b af 7d 3d c7 1f d4 bd 45 dc 8d bd c1 94 04 be
       0.061934512 -0.103576235 -0.06926779 -0.1294737
000020 c4 d9 a6 3d 3f 6f 62 3e 12 04 16 3e 7b e1 8b be
       0.08147004 0.2211275 0.1464999 -0.27320465
000030 4e d6 56 be 56 ea f8 3e db 60 b0 3e aa 18 8b bd
       -0.20980188 0.48616284 0.34448895 -0.06791814
000040 e1 ef 83 3e da ca de 3d c6 7c b4 3e 74 d3 a2 b9
       0.2576895 0.108785346 0.35251445 -0.00031056593
000050 25 bb f0 3d de 21 6e be 75 2b 20 be db 51 0b bf
       0.11754445 -0.23255107 -0.15641578 -0.54421777
000060 65 13 6c 3e 72 30 20 be 1b e7 78 3e 58 4d 85 3e
       0.23054273 -0.1564348 0.2430691 0.2603557
000070 e8 02 2c bf c2 01 44 3e 3c b5 de 3e 45 40 93 bd
       -0.67191935 0.19141296 0.43497646 -0.07189993
000080 6f d9 df 3d c2 41 83 3e 13 b3 f1 3d 8f 5c 82 be
       0.10930144 0.25636107 0.11801734 -0.25461242
000090 f9 72 ed bd 26 b4 57 3e 15 9c 0b 3e 78 87 6d be
       -0.11594195 0.21064815 0.1363376 -0.23196208
0000a0 87 b0 84 be 94 5d 8c be 54 98 de bc 23 10 1a 3f
       -0.2591593 -0.27415144 -0.027172245 0.6018087
0000b0 33 ff c3 3e 2b 04 be be 88 01 ea be 82 f0 ba 3e
       0.3828064 -0.37112555 -0.45704293 0.36511618
0000c0 82 ff de be d2 3a b2 bc d9 5e 69 3e b0 ed 2f bd
       -0.43554312 -0.021756563 0.22790088 -0.042951286
0000d0 bc d6 22 3d 5b 75 46 bd 4b 32 42 3e cb 27 dd 3d
       0.039755568 -0.048451763 0.18964498 0.107986055
0000e0 fa 54 3d be cc 62 f8 be 10 6b 8f bd f0 1d 09 3d
       -0.18489447 -0.48512876 -0.070028424 0.033475816
0000f0 e3 f5 8a 3e c5 ff 58 bd 8b 6d 5f bd c4 53 0a 3f
       0.27140722 -0.052978296 -0.054547828 0.54034066
000100 80 58 99 be 22 ec 98 3c fe 24 34 be 4b 63 11 3f
       -0.29950333 0.018667284 -0.17592236 0.56792134
000110 64 47 21 3b 0b 48 35 3c 8d 80 91 bd 78 7b 30 bd
       0.0024609203 0.01106454 -0.07104597 -0.0430865
000120 43 56 dc be 88 9c 27 bd 84 98 6a be f6 06 8f be
       -0.43034562 -0.040920764 -0.22909743 -0.27934998
000130 17 c9 33 be da aa 47 be 6e 41 28 3f 22 ee 2d 3e
       -0.17557178 -0.19498768 0.6572484 0.16985372
000140 8a 36 d3 be ee c3 f1 be c7 0d 97 be 22 5a db bd
       -0.41252548 -0.47219795 -0.295027 -0.10710551
000150 31 fb f9 3c 7e 91 af bc 74 f3 15 3d ad a7 e7 bd
       0.030515285 -0.02143168 0.036609128 -0.113112785
000160 5a 27 1f be 4d 97 be 3e f8 ad 57 3f 68 e1 3f 3e
       -0.15542355 0.37224808 0.8424983 0.1873833
000170 5c c7 01 bf ae 48 8a be 03 a4 8d 3d 5d d8 f6 bc
       -0.50694823 -0.27008575 0.069160484 -0.030132467
000180 d4 b4 14 3c 6b 8b b2 be 74 79 1f 3e 1d b6 1b bf
       0.009076316 -0.34871992 0.15573674 -0.6082476
000190 43 ca ad 3e 30 8f d6 be fa b4 bc 3d 59 84 96 be
       0.33943376 -0.41906118 0.09214206 -0.29397848
0001a0 69 93 b4 bd fe 2d 35 3e fc 7e 19 3e 34 ec 04 3d
       -0.08817179 0.17693326 0.14989847 0.032451823
0001b0 bf 60 95 bd 04 53 e5 bb 4c 95 77 3e 48 85 bc be
       -0.072938435 -0.0069984216 0.24178046 -0.36820436
0001c0 a6 3b b6 be de 3c d1 bd 39 91 0b be 78 0e 46 bd
       -0.35592383 -0.102166876 -0.13629617 -0.048353642
0001d0 13 44 0c 3e 2d 88 16 be e0 fa 80 be df 24 a1 bd
       0.13697843 -0.14700384 -0.25191402 -0.07868361
0001e0 84 d1 91 3c c2 5f 3c 3d af 69 d9 3d 54 ca fb be
       0.0178001 0.04598976 0.10615861 -0.49177802
0001f0 8f 8a c5 bd 78 0b 17 3e 7f 25 ba bc 5d ef 2a 3e
       -0.096455686 0.14750469 -0.022722958 0.16692872
000200 97 56 ca 3e f4 fe b1 3d 89 e5 db ba 93 1a 04 bf
       0.39519188 0.086912066 -0.0016776781 -0.5160305
000210 43 70 e1 3d df b4 df be f3 69 18 bf bc 54 97 bd
       0.1100774 -0.4369268 -0.59536666 -0.07389209
000220 7c 6b ed be 4f bf 84 3e 5e 83 b4 3d ff a2 56 be
       -0.46371067 0.25927207 0.08814119 -0.20960616
000230 68 4b 7a be 49 44 26 bd 0c 0a a7 be eb 98 83 3d
       -0.24442828 -0.040592466 -0.32624853 0.06425651
000240 f0 be 2b 3e ee ee 09 bf bb 0e f8 3d 6a 9c 03 3b
       0.16772056 -0.538802 0.121121846 0.0020082244
000250 ae cc 7f 3d 0b ae 8c 3d a5 d0 c8 3c 5a a2 f7 bd
       0.062451057 0.068691336 0.024513552 -0.12091513
000260 5e 30 6e be 1d 27 81 3e e7 81 5e 3e 15 d8 3a bc
       -0.23260638 0.25225154 0.21729241 -0.011404057
000270 9b f5 a8 3d 61 02 c7 be 92 f0 46 be 61 b6 ec bd
       0.082499705 -0.38869002 -0.19427708 -0.115582235
000280 52 cb 0d bf fd 68 5d be 5e f7 36 3e 54 81 ea bd
       -0.5538837 -0.21622081 0.178678 -0.11450449
000290 d3 b3 16 3e 61 b5 c5 3e 1a dd e6 be 72 2c 29 3e
       0.14717035 0.38614944 -0.45090562 0.16520861
0002a0 75 a1 59 bd e2 47 22 bd a8 a8 b7 be 4c 1e e1 3d
       -0.053132493 -0.039619334 -0.35870862 0.10992107
0002b0 08 20 86 bc 52 14 20 be dd 81 a2 3d 06 b4 14 bd
       -0.016372696 -0.15632752 0.07934926 -0.036304496
0002c0 3c 16 9c be 26 f0 a3 bd 69 86 98 3e b9 e0 96 3e
       -0.30485713 -0.08004789 0.29790047 0.29468325
0002d0 cd f5 4d be 95 03 9e 3c a8 5c 26 be a9 9c ed bd
       -0.20113297 0.019288817 -0.16246283 -0.11602146
0002e0 21 d0 92 bc ef ed 09 3f 75 9a 27 bd 18 3e 8b 3e
       -0.01792151 0.5387868 -0.040918786 0.2719581
0002f0 19 22 54 3d 73 a3 d2 3e c5 c9 ba 3d 2c a5 7f 3e
       0.05179033 0.41140327 0.09120516 0.24965352
000300 41 f4 ba be f4 76 25 3c 42 3d 4c be cf 3e ba 3e
       -0.36514476 0.010099161 -0.19945243 0.36376044
000310 d1 fa 33 3e 94 eb 7a 3d 4a c4 bd bd b3 14 62 3e
       0.17576148 0.06125982 -0.09265955 0.22078209
000320 26 83 ba bd c1 24 81 3e 4e b9 ae 3e e7 d3 50 3e
       -0.09107046 0.25223354 0.3412575 0.20393334
000330 65 c8 d3 bd a1 67 a3 3e 2d ac 95 bd 97 dc f1 bd
       -0.103409566 0.31915 -0.073082305 -0.11809652
000340 a7 6f 9e bd 38 d0 0f bf 6d ea b2 3e dd 17 b5 be
       -0.0773614 -0.5617709 0.34944478 -0.3536977
000350 6e 44 f8 3e 20 a1 45 3e fc c7 2d be 60 3d 25 3e
       0.48489708 0.19299746 -0.16970819 0.16136694
000360 ef 0e c6 3c c0 e1 85 be c8 08 31 3e eb ec 15 3e
       0.024177043 -0.26148796 0.17288506 0.14641158
000370 fd 63 c8 3d 38 cf 9c be 4c 7a 6d bd 0c b0 5a 3e
       0.09784696 -0.30626845 -0.05797796 0.21356219
000380 b5 71 60 3e fa 7b c7 bc 34 4b 7f be 32 08 91 be
       0.21918376 -0.024351109 -0.24931031 -0.28326565
000390 81 ee 5f bd b2 ce 14 be 07 b0 02 3f 5d f7 18 bd
       -0.054670814 -0.14531973 0.51049846 -0.03734528
0003a0 75 e7 15 be b3 3e f1 ba d0 78 cd bd d9 16 81 bc
       -0.14639075 -0.0018405527 -0.10032809 -0.015757965
0003b0 2c 55 7f be 9a a3 44 3e fb 5e af be 2e 86 06 be
       -0.24934834 0.19203034 -0.34252152 -0.13137123
0003c0 17 11 67 3e d8 90 64 be 7d ea 96 be 6a 1b 5c be
       0.22565113 -0.22320879 -0.29475775 -0.21494833
0003d0 02 d5 f3 3c b5 aa 5f 3d 4e 1c e6 bd 2f 83 d3 3e
       0.029764656 0.05460616 -0.112358674 0.41311023
0003e0 38 5b c9 3e 65 ff a2 be 59 f5 07 be df b4 64 be
       0.39327407 -0.31835476 -0.13277186 -0.22334622
0003f0 d6 68 55 be 0c 4c eb 3e c1 33 d5 3e 82 ae 95 bd
       -0.20840773 0.45956457 0.41641048 -0.07308675

net.1.linear.bias f4 [32]
000000 6c e5 05 3e 9e a5 91 3d a6 f1 8e bd 28 a4 83 3d
       0.13075799 0.07111667 -0.069796845 0.06427795
000010 a0 06 79 bc 51 31 0d be c7 54 11 3c 6d 18 a7 3b
       -0.015199333 -0.13788344 0.00887031 0.0050993473
000020 f1 b9 a5 bd 14 0e 2c be 43 80 89 3c 71 e3 3e 3c
       -0.08092106 -0.16802245 0.016784793 0.011650906
000030 31 ac 34 3e 5b ad 88 3d 7d 1b 31 bd ea c2 b8 3d
       0.17643811 0.0667369 -0.043239105 0.09021552
000040 ff ce e5 3d 82 ad ac 3d 32 c3 23 be b3 4a 0f 3e
       0.11221122 0.084315315 -0.1599243 0.13993339
000050 65 14 f0 bc 77 7b 1d 3e 5a 2f 32 be 8a cb 6f bd
       -0.0293066 0.1537913 -0.17400876 -0.05854372
000060 72 62 c3 3d 0f 31 dc bd d9 5a 11 be 04 85 95 3c
       0.09540261 -0.10751545 -0.14194812 0.018251903
000070 02 35 29 bb 65 06 2b 3e 54 89 24 be 32 e9 99 bd
       -0.0025818949 0.16701658 -0.16068012 -0.075151816

net.1.batch_norm.weight f4 [32]
000000 00 00 80 3f 00 00 80 3f 00 00 80 3f 00 00 80 3f
       1.0 1.0 1.0 1.0
000010 00 00 80 3f 00 00 80 3f 00 00 80 3f 00 00 80 3f
       1.0 1.0 1.0 1.0
000020 00 00 80 3f 00 00 80 3f 00 00 80 3f 00 00 80 3f
       1.0 1.0 1.0 1.0
000030 00 00 80 3f 00 00 80 3f 00 00 80 3f 00 00 80 3f
       1.0 1.0 1.0 1.0
000040 00 00 80 3f 00 00 80 3f 00 00 80 3f 00 00 80 3f
       1.0 1.0 1.0 1.0
000050 00 00 80 3f 00 00 80 3f 00 00 80 3f 00 00 80 3f
       1.0 1.0 1.0 1.0
000060 00 00 80 3f 00 00 80 3f 00 00 80 3f 00 00 80 3f
       1.0 1.0 1.0 1.0
000070 00 00 80 3f 00 00 80 3f 00 00 80 3f 00 00 80 3f
       1.0 1.0 1.0 1.0

net.1.batch_norm.bias f4 [32]
000000 00 00 00 00 00 00 00 00 00 00 00 00 00 00 00 00
       0.0 0.0 0.0 0.0
000010 00 00 00 00 00 00 00 00 00 00 00 00 00 00 00 00
       0.0 0.0 0.0 0.0
000020 00 00 00 00 00 00 00 00 00 00 00 00 00 00 00 00
       0.0 0.0 0.0 0.0
000030 00 00 00 00 00 00 00 00 00 00 00 00 00 00 00 00
       0.0 0.0 0.0 0.0
000040 00 00 00 00 00 00 00 00 00 00 00 00 00 00 00 00
       0.0 0.0 0.0 0.0
000050 00 00 00 00 00 00 00 00 00 00 00 00 00 00 00 00
       0.0 0.0 0.0 0.0
000060 00 00 00 00 00 00 00 00 00 00 00 00 00 00 00 00
       0.0 0.0 0.0 0.0
000070 00 00 00 00 00 00 00 00 00 00 00 00 00 00 00 00
       0.0 0.0 0.0 0.0

net.1.batch_norm.running_mean f4 [32]
000000 00 00 00 00 00 00 00 00 00 00 00 00 00 00 00 00
       0.0 0.0 0.0 0.0
000010 00 00 00 00 00 00 00 00 00 00 00 00 00 00 00 00
       0.0 0.0 0.0 0.0
000020 00 00 00 00 00 00 00 00 00 00 00 00 00 00 00 00
       0.0 0.0 0.0 0.0
000030 00 00 00 00 00 00 00 00 00 00 00 00 00 00 00 00
       0.0 0.0 0.0 0.0
000040 00 00 00 00 00 00 00 00 00 00 00 00 00 00 00 00
       0.0 0.0 0.0 0.0
000050 00 00 00 00 00 00 00 00 00 00 00 00 00 00 00 00
       0.0 0.0 0.0 0.0
000060 00 00 00 00 00 00 00 00 00 00 00 00 00 00 00 00
       0.0 0.0 0.0 0.0
000070 00 00 00 00 00 00 00 00 00 00 00 00 00 00 00 00
       0.0 0.0 0.0 0.0

net.1.batch_norm.running_var f4 [32]
000000 00 00 80 3f 00 00 80 3f 00 00 80 3f 00 00 80 3f
       1.0 1.0 1.0 1.0
000010 00 00 80 3f 00 00 80 3f 00 00 80 3f 00 00 80 3f
       1.0 1.0 1.0 1.0
000020 00 00 80 3f 00 00 80 3f 00 00 80 3f 00 00 80 3f
       1.0 1.0 1.0 1.0
000030 00 00 80 3f 00 00 80 3f 00 00 80 3f 00 00 80 3f
       1.0 1.0 1.0 1.0
000040 00 00 80 3f 00 00 80 3f 00 00 80 3f 00 00 80 3f
       1.0 1.0 1.0 1.0
000050 00 00 80 3f 00 00 80 3f 00 00 80 3f 00 00 80 3f
       1.0 1.0 1.0 1.0
000060 00 00 80 3f 00 00 80 3f 00 00 80 3f 00 00 80 3f
       1.0 1.0 1.0 1.0
000070 00 00 80 3f 00 00 80 3f 00 00 80 3f 00 00 80 3f
       1.0 1.0 1.0 1.0

net.2.weight f4 [1000, 32]
000000 ab 57 ab 3d 87 d4 04 be b5 e1 77 bc f4 94 68 bd
       0.08366331 -0.12971698 -0.015129496 -0.056782678
000010 b1 5f 6e bd 7d fd 10 be ae ed 0a 3e 03 1b 7b bd
       -0.058196727 -0.14159198 0.1356723 -0.061305057
000020 98 b7 34 be e0 fd d2 bd 22 83 19 be 20 3d cd 3d
       -0.1764816 -0.10302329 -0.1499143 0.10021424
000030 ae 07 0d 3d eb 0d e4 bd fc 18 ae bd 5b 86 a7 3d
       0.034431152 -0.11135467 -0.08500859 0.08179923
000040 69 e0 33 3e 62 9c ac 3c 6e 6c 39 bc 96 4a 2e be
       0.17566074 0.021070663 -0.011317356 -0.1702064
000050 f6 9d db 3d 71 b8 e8 bd 39 f6 8c 3d 66 71 53 bd
       0.10723488 -0.113633044 0.06882901 -0.051621817
000060 4b 6d 0c be 61 e4 b4 bd 05 1f 00 be df a5 23 3e
       -0.13713567 -0.08832622 -0.12511833 0.15981244
000070 bb 5e 52 bd b2 46 fd bd 1d 4e b3 bd 4a 0a 3b bd
       -0.051359873 -0.12367 -0.08755133 -0.04566411
000080 42 72 1c be e2 d3 08 bd 2d 20 fe 3d 8c c8 f7 bd
       -0.15277961 -0.033405192 0.12408481 -0.12098798
000090 e6 eb d6 bd 0a 9b dc 3d 28 6d c4 bd e7 cc 2c be
       -0.10494213 0.10771759 -0.095911324 -0.16875039
0000a0 98 16 d0 ba b2 7d e2 bc bf f4 1b 3e 50 63 09 3d
       -0.0015875874 -0.027647827 0.15230082 0.033541977
0000b0 d9 64 75 bd af 77 23 bd ef 34 23 be a9 93 4d bc
       -0.05991063 -0.03990906 -0.15938161 -0.012547412
0000c0 4f d5 8a bc 6f 32 77 bc 9f cf 16 3e 47 27 c4 bd
       -0.016947417 -0.015087708 0.14727639 -0.09577804
0000d0 c5 5a 79 ba c9 e5 2a 3e bf 2a 1d be a1 0c 26 3d
       -0.0009512122 0.16689219 -0.15348338 0.040539388
0000e0 85 50 83 bd 92 c7 aa bd 76 3b f0 bd a5 15 16 3e
       -0.06411842 -0.08338846 -0.11730091 0.14656694
0000f0 1c dc 9e 3d 43 79 24 3e b0 dc 9d 3d 54 ad 98 bb
       0.07756826 0.16061883 0.077081084 -0.004659334
000100 f1 c0 b9 3d 65 b4 3a bd 28 04 e7 3d 92 3d ec bd
       0.09070004 -0.045582194 0.112800896 -0.11535181
000110 b1 05 8f 3d 36 24 21 3e 98 b5 f0 3d 20 58 11 3e
       0.069835074 0.1573647 0.11753386 0.14193773
000120 d2 f0 cf bd d1 46 29 bd 42 4a 27 be f6 82 fa bc
       -0.10153355 -0.0413273 -0.16336921 -0.030580025
000130 49 20 21 3e a9 83 62 bd 95 6e 32 3e 92 3f a9 3c
       0.15734972 -0.055301342 0.17424996 0.020660195
000140 47 6a 03 be ea 30 2c be 46 f4 d6 3d ad ea 22 3e
       -0.1283351 -0.16815534 0.1049581 0.15909834
000150 f1 9e d3 bd f1 a5 15 3e c4 e8 e4 ba 5b be 33 bd
       -0.1033305 0.14614083 -0.0017464389 -0.04388271
000160 bb 9a 34 be 22 e1 1a 3e 39 85 f0 3c da 67 47 3d
       -0.1763715 0.15124944 0.0293604 0.048683025
000170 56 06 9f 3d ec 2e 24 be 7c a5 8f bd 25 2e 23 3e
       0.0776488 -0.16033524 -0.070139855 0.15935571
000180 8c 04 a7 3d 8f af 07 3e 36 57 21 3e 72 d8 c3 bd
       0.08155164 0.13250564 0.15755925 -0.09562768
000190 6f c2 24 3e 17 73 b3 3c cd 57 af bc cc 4b 5e 3d
       0.16089796 0.021905465 -0.021404171 0.054271504
0001a0 27 a4 10 be 77 8a 1f bd cb b3 31 be a1 f2 02 be
       -0.14125119 -0.03895041 -0.17353742 -0.12787868
0001b0 47 cc fc bd 89 4b f7 3d 43 e3 cb 3b 6a c3 a4 3d
       -0.1234365 0.12074954 0.00622216 0.08045085
0001c0 cd 06 f1 bd da 6a 13 be 3d c6 0a 3d 7e 57 06 3e
       -0.11768875 -0.1439623 0.03388046 0.13119313
0001d0 9c 5a e7 bd 55 b2 40 bc 41 31 ee 3d 0d 50 2d 3e
       -0.11296579 -0.011761268 0.11630488 0.16925068
0001e0 0f 3c 31 be 49 9c 1e 3e be f0 60 bc 3c fd 3d 3d
       -0.17308067 0.15489306 -0.013729272 0.04638408
0001f0 2c d4 f9 bc c9 4d 1d 3e 48 d4 21 be c0 5e f9 bc
       -0.03049668 0.15361704 -0.15803635 -0.030440688
000200 cb 67 32 be 7b 70 5e bd bd ba 11 be 44 53 34 3e
       -0.17422406 -0.05430649 -0.14231391 0.17609888
000210 13 fa 95 bd 31 7a 88 3d 68 a0 bf bd 27 3a 03 3e
       -0.073230885 0.06663931 -0.09356767 0.12815152
000220 d3 f3 0b be c8 59 ac bd 36 53 9d bb 24 ad d9 bb
       -0.1366723 -0.08415562 -0.0048011793 -0.0066429544
000230 8e 9f 84 bd 2d 92 eb 3d 88 c9 8e bc 19 c2 bc 3d
       -0.06475745 0.1150249 -0.017430082 0.09216709
000240 26 ee c4 3d a9 60 1c be b2 03 23 bd b9 bd 03 bd
       0.09615736 -0.15271248 -0.039798446 -0.032163355
000250 99 6f 51 bd 44 d7 10 bc 4b 62 b4 bd 73 12 d7 3d
       -0.05113182 -0.008840386 -0.088078104 0.10501566
000260 49 e8 78 3d e9 71 8f 3c 9a ba eb 3d 03 de 93 bd
       0.0607684 0.017510371 0.11510201 -0.0722008
000270 1c 44 38 bd 68 f6 86 bd 87 d0 9c bc 98 25 12 bd
       -0.04498683 -0.06589967 -0.019142402 -0.035680383
000280 a4 82 93 3d 2a f7 07 be 23 5b 2b 3b de 25 0c 3e
       0.07202652 -0.1327788 0.002614685 0.1368632
000290 95 3d 2d 3e e3 05 2b bd d7 45 54 3d 1e de 18 bb
       0.16918023 -0.04175366 0.051824417 -0.0023325752
0002a0 82 9c d8 3d 73 b7 87 3d 0f 37 1d 3d 4d 5c b9 3c
       0.105767265 0.06626787 0.038382586 0.02262702
0002b0 2f b5 0d bd cb 7e 0e be 5b bf 96 3d 82 d6 93 bd
       -0.03459662 -0.13915555 0.07360717 -0.072186485
0002c0 2b ce ac bd e8 f6 05 3e 5d a3 27 be 47 a2 14 bd
       -0.08437761 0.13082469 -0.16370912 -0.036287572
0002d0 ae 1e dd 3c f6 51 2c 3d 0f a1 19 bd ec 8b 67 bd
       0.026992168 0.04207035 -0.037507113 -0.056529924
0002e0 d9 da 6c bd 46 ec 6e 3d 1e bf 31 be 7b 2f 60 bd
       -0.057825897 0.058330797 -0.17358062 -0.05473278
0002f0 b4 db d8 3c b8 37 01 3e 2d ca 16 bd 26 6c 51 bd
       0.02647195 0.12618911 -0.036813904 -0.05112853
000300 55 29 32 be bb e5 2b bd 10 41 1a 3d 31 13 11 bc
       -0.1739858 -0.041967135 0.037659705 -0.008854673
000310 21 23 30 3e 64 a8 f2 bd b2 77 b8 bd 42 d0 08 bd
       0.172009 -0.11848524 -0.09007205 -0.033401735
000320 77 8e b2 3d 7b 89 c1 3d f0 3c 75 bd 45 6f 10 be
       0.08718579 0.094500504 -0.059872568 -0.14104946
000330 47 ba b5 bc b1 7e 9e 3d 25 5b 20 3e be 31 24 be
       -0.02218355 0.07739008 0.15659769 -0.160346
000340 19 36 31 3e e0 10 bf bc 28 16 2a be e3 50 26 bd
       0.17305793 -0.023323476 -0.16610014 -0.040604483
000350 4f b9 67 3b 98 30 2c bd 10 aa bd bd 58 cb 0c be
       0.0035358255 -0.04203853 -0.092609525 -0.13749444
000360 54 f9 ad bd 96 c0 cc bd 24 05 7e bd 68 4f 09 3e
       -0.08494821 -0.0999767 -0.06201662 0.13409197
000370 7d c3 17 3e 71 57 97 3d b4 e2 83 3d d7 3d 15 bd
       0.14820667 0.07389725 0.064397246 -0.03643593
000380 fb 11 47 3d 77 2b f8 bc cb f5 a7 3d 1a a9 1c 3e
       0.048601132 -0.030294163 0.08201178 0.15298882
000390 2c 66 cf 3d af be 15 3e 3c 5d 8c 3d 0e 5a 89 bd
       0.101269096 0.14623521 0.068537205 -0.0670663
0003a0 af 38 1c be 65 ca af 3c bb 54 26 be a4 b5 1b bd
       -0.15255998 0.021458814 -0.1624326 -0.038015023
0003b0 82 0e 91 bd 29 38 1d 3e 45 d0 24 be 04 b7 18 be
       -0.07082845 0.15353455 -0.16095074 -0.14913565
0003c0 11 1a 14 be 15 ad 20 3e 34 3d 4b 3d 60 87 77 3d
       -0.14463069 0.15691026 0.049618915 0.060431838
0003d0 db 70 14 3e 53 e4 03 be 31 60 97 3d da 6e a4 3d
       0.14496176 -0.12880068 0.07391394 0.08028956
0003e0 d7 0a 00 bd fe bb ac 3d 1c f8 80 bd 7f 23 d5 bd
       -0.031260338 0.08434294 -0.06297323 -0.10407161
0003f0 9b f4 37 bb 86 f4 e2 bd b3 ec 79 3d d4 0e 99 bd
       -0.002806938 -0.110817954 0.06101675 -0.07473531

net.2.bias f4 [1000]
000000 a6 bc de 3d 8a 7d 25 3e e8 c4 ff 3d e0 f7 00 3d
       0.108758256 0.1616117 0.12488729 0.031486392
000010 2c d4 10 3e 01 9f da bd 33 c5 a1 3d 8b 1d 20 3e
       0.14143437 -0.10674859 0.07898941 0.1563627
000020 7a 35 93 bd 35 2a 02 be 3c b6 13 3d 36 76 54 bc
       -0.07187934 -0.12711413 0.036062464 -0.012967637
000030 c8 00 1a be 7b ae a4 3d dc 96 aa 3d 66 e1 33 be
       -0.1503936 0.08041092 0.083295554 -0.17566451
000040 5e 99 ed bc bb 83 44 bc e9 43 3c 3d 1f d2 0c 3e
       -0.029003795 -0.011994298 0.0459632 0.1375203
000050 63 b3 4e bd 06 b1 67 bd ab 20 be bd 97 fc 1c 3d
       -0.050464045 -0.056565307 -0.09283575 0.038326826
000060 48 5c d6 bd b6 19 2a 3d 6e f6 2e be ca 12 b6 bd
       -0.1046682 0.041528426 -0.17086193 -0.088903025
000070 05 98 1f be 79 21 0c 3c 57 0f 30 bb a7 cc c8 3d
       -0.15585335 0.008552902 -0.0026864612 0.09804659
000080 02 a2 88 3c 7d 0b ca bd 86 93 e7 bd ff 9a 18 be
       0.016678814 -0.098654725 -0.11307435 -0.14902876
000090 2e ba b7 bc ad a8 fb bb 4e 50 b2 bd 9b 1d cf bc
       -0.022427645 -0.00768002 -0.08706723 -0.025282672
0000a0 6e 5b 80 bb d6 78 48 bc 32 74 ec 3d e8 5f 73 bd
       -0.0039171493 -0.012235841 0.115456 -0.059417635
0000b0 fb e8 24 be e2 fd ea 3d 60 9e 08 be c6 e7 33 be
       -0.161045 0.114742056 -0.13341665 -0.17568883
0000c0 07 8e df 3d f2 b4 84 3d 49 05 04 be c1 08 41 3d
       0.109157614 0.06479825 -0.12892641 0.04712749
0000d0 f3 f3 9c bd 27 01 bd 3d f4 e0 32 3e 61 ed a6 3d
       -0.07663717 0.092287354 0.17468625 0.08150745
0000e0 17 3b 86 3b f8 4c 41 3d 22 b5 e7 bd dd 6b 29 be
       0.0040963995 0.047192544 -0.11313845 -0.16545053
0000f0 b5 b0 57 3d 87 3f 46 bb f3 d6 1b 3e c9 b4 be 3d
       0.052658755 -0.0030250268 0.15218715 0.09311826
000100 6c f6 11 be d1 a0 92 bd 11 4b 97 3a c8 20 df 3d
       -0.14254159 -0.071595795 0.0011542757 0.108949244
000110 34 a7 29 be aa c3 f5 bd 97 8f 09 3e bf ad be 3d
       -0.16567689 -0.120002106 0.13433681 0.09310483
000120 02 39 1e 3e f9 d2 1f 3e 20 60 29 3e 95 b7 5b 3d
       0.15451434 0.15607823 0.16540575 0.053641874
000130 fb 9e 2f 3e 0e ad f6 3d 05 a9 8b bd 90 d8 f0 bd
       0.1715049 0.12044726 -0.06819347 -0.11760056
000140 78 9e 09 be ba a3 2d 3e e8 a3 2c be 1e 78 c2 bd
       -0.13439357 0.16956988 -0.168594 -0.09495567
000150 bf fe 65 3c c7 97 09 be 86 5a 3f bd e2 2d 2f bd
       0.014037787 -0.13436805 -0.04671719 -0.042768367
000160 dd 95 f2 bd 81 ab 1a bc f4 e7 a0 bd 7d b0 98 bd
       -0.118449904 -0.009440304 -0.078567415 -0.074555375
000170 ec 08 cf 3c 24 58 33 be 8f e5 e7 bd 6e 88 1a 3e
       0.025272809 -0.17514092 -0.11323082 0.15091106
000180 df d3 25 3e 03 97 a0 3d 09 64 d8 bd c9 74 bf 3d
       0.16194104 0.07841303 -0.10565955 0.09348447
000190 b2 1c 61 bd 8e 0a 9d 3d 0e a3 a4 bd 77 f3 1e 3e
       -0.054959007 0.07668029 -0.08038913 0.15522562
0001a0 eb 19 0b 3d b9 ff 21 be 3c 9e 2c be ea 7f c5 bd
       0.033960264 -0.15820207 -0.16857237 -0.09643538
0001b0 e2 59 7a 3d 58 c5 a9 3c 35 5d 2e be 84 90 10 be
       0.061120875 0.020723984 -0.17027743 -0.14117628
0001c0 fb 65 02 be b7 40 8c 3d a2 92 a5 bb dc db 84 3d
       -0.12734215 0.06848281 -0.0050528804 0.06487247
0001d0 24 26 25 be 6d 13 fe bd 6c 5a 2c be 86 c1 03 be
       -0.1612783 -0.12406049 -0.16831368 -0.12866792
0001e0 76 5a a5 3d 1c 8b 26 be 97 a0 85 bc 81 0f 95 bd
       0.08073895 -0.16264004 -0.016311927 -0.07278348
0001f0 01 00 0d 3e 42 fe 3c bd 81 83 97 3c 4a fb 35 3c
       0.13769533 -0.046140917 0.018495323 0.011107275
000200 70 71 13 be 0f ea 00 be b3 fc 98 bb 7f 6c 20 bc
       -0.14398742 -0.12589286 -0.004668796 -0.0097914925
000210 83 78 de bd 38 d8 24 bd f0 48 e0 bc 92 b9 34 3e
       -0.108628295 -0.040245265 -0.02737853 0.17648914
000220 6e da c8 bd 34 77 89 bc b9 42 db bd a5 2e 68 3d
       -0.09807287 -0.016780473 -0.10706086 0.05668511
000230 56 3c 09 3d c5 01 df 3d c9 9a 14 3c cd b0 e3 3d
       0.033504806 0.108890094 0.009070107 0.111177064
000240 9f 13 31 3d 36 57 e4 bd 29 21 ef 3d 2c 2c 87 bd
       0.043231603 -0.11149447 0.11676247 -0.06600222
000250 67 0c 96 bd 21 fd 19 be 75 8b d4 bd c6 ce 12 3e
       -0.07326584 -0.15037967 -0.10378162 0.1433669
000260 d6 37 c2 3d 87 03 33 3e 68 8f 0e be 81 dc 04 be
       0.09483306 0.17481814 -0.13921893 -0.1297474
000270 25 96 60 3d 75 47 be 3d d1 6a 24 bd 39 5d d3 3d
       0.05483069 0.09290973 -0.04014093 0.10320515
000280 a7 de d2 3d 6a 44 16 3e e8 0b 1a be 84 02 3a 3d
       0.10296374 0.14674535 -0.15043604 0.045412555
000290 69 5d 11 3e 6f d8 c7 3d b9 8a 2d bd e9 d1 a4 3d
       0.1419579 0.09758078 -0.042368624 0.0804785
0002a0 b6 1e 68 bd 3d e3 20 be 99 88 21 be 2c 40 80 3d
       -0.056669913 -0.15711685 -0.15774764 0.0626224
0002b0 69 b6 c6 3d e0 be ca 3b 34 9a df bd fc b0 09 3d
       0.09702761 0.006187305 -0.10918084 0.03361605
0002c0 fd 2f 33 be ae 68 a7 bc 20 c0 d6 3d 04 e3 5d 3d
       -0.17498775 -0.020435657 0.10485864 0.054171577
0002d0 02 d9 2d be cf 3e c4 bd f4 2c f7 bc a7 97 e5 3d
       -0.16977313 -0.09582292 -0.030172803 0.11210566
0002e0 20 b3 10 3e 4e 4a d2 3d 44 2a 8a bd 10 ce b8 bd
       0.14130831 0.10268079 -0.06746343 -0.09023678
0002f0 7b 4b 1d be 98 ee 93 3d 3d 14 cf 3d 3f 23 ce 3c
       -0.15360825 0.072232425 0.10111282 0.025163291
000300 e1 96 5f bd f0 d1 eb bd 74 01 8c bd e3 49 bc bd
       -0.05458725 -0.11514652 -0.06836215 -0.0919378
000310 90 54 af 3d e4 01 0d 3d 66 16 00 3d 77 26 27 be
       0.08561051 0.03442563 0.03127136 -0.16323267
000320 0b 7f 94 3d 5e 36 d9 bd bb fd 8b 3d 4f 2c bf bd
       0.07250794 -0.10606073 0.068355046 -0.09334623
000330 f3 7b 8c 3d 61 2b 41 bd 88 c3 ba bd 9e 36 90 bc
       0.06859579 -0.04716051 -0.09119326 -0.017604169
000340 d0 08 e0 3d 91 43 1c 3e 78 71 28 bd 46 25 2a be
       0.10939181 0.1526015 -0.041123837 -0.16615781
000350 16 12 26 3e c1 1b 20 3d 40 02 1b be 16 ae 08 3e
       0.16217837 0.03908897 -0.15137577 0.13347659
000360 54 f9 38 bd 1e e5 1f 3e d3 a6 14 be ec 89 7e 3c
       -0.045159653 0.15614745 -0.14516763 0.015535813
000370 6c 28 0e bd 31 51 ab 3c 21 7d c9 3d 90 15 79 3c
       -0.034706518 0.020912739 0.098383196 0.015202895
000380 f0 b3 e1 bd 81 7d 5c 3d b6 40 f2 bc 1a f9 18 3e
       -0.110206485 0.053830627 -0.029571872 0.14938775
000390 f9 55 b0 3d fd ea 96 bd ee 48 f4 bd fc 29 b1 bd
       0.08610148 -0.07369039 -0.11927973 -0.08650586
0003a0 22 28 ed bd fb 26 29 3e 15 d0 24 be 46 a5 8f bd
       -0.1157992 0.16518776 -0.16095002 -0.07013945
0003b0 f2 02 a9 3d b8 85 31 3e 07 ef e5 bd db aa a0 bc
       0.08252515 0.17336166 -0.112272315 -0.01961272
0003c0 75 2b 07 3e 95 c5 72 bd 24 d9 2d 3e 33 b4 1c 3c
       0.13200171 -0.05927046 0.16977364 0.009564447
0003d0 47 75 25 be 09 2a 04 3e 85 b6 19 be d7 a7 2c 3e
       -0.16158019 0.1290666 -0.15011032 0.16860901
0003e0 b3 51 e2 bd c3 b9 a6 3c 33 a2 77 3d 89 9d 34 bd
       -0.11050739 0.02035225 0.06045742 -0.04409555
0003f0 f8 ba a5 3d 2b 60 28 3c 4a 23 ca bd d9 67 b2 3d
       0.08092302 0.0102768345 -0.09870012 0.087112136
